…
│    │    └─TemporalNorm2d: 3-61                   2,048
├─ModuleList: 1-7                                  --
│    └─Sequential: 2-22                            --
│    │    └─DcConv: 3-62                           26,229,760
│    │    └─TemporalConv2d: 3-63                   5,243,904
│    │    └─TemporalNorm2d: 3-64                   2,048
===========================================================================
Total params: 307,929,273
Trainable params: 307,929,273
Non-trainable params: 0
===========================================================================

Model(
  (emb_net): ModuleList(
    (0): Sequential(
      (0): Conv2d(1, 64, kernel_size=(1, 1), stride=(1, 1))
      (1): ResnetBlock(
        (actvn): LeakyReLU(negative_slope=0.2)
        (conv_0): Sequential(
          (0): Conv2d(64, 64, kernel_size=(3, 3), stride=(1, 1), padding=(1, 1))
          (1): GroupNorm(4, 64, eps=1e-05, affine=True)
        )
        (conv_1): Sequential(
          (0): Conv2d(64, 64, kernel_size=(3, 3), stride=(1, 1), padding=(1, 1), bias=False)
          (1): GroupNorm(4, 64, eps=1e-05, affine=True)
        )
      )
    )
    (1): Sequential(
      (0): MaxPool2d(kernel_size=2, stride=2, padding=0, dilation=1, ceil_mode=False)
      (1): ResnetBlock(
        (actvn): LeakyReLU(negative_slope=0.2)
        (conv_0): Sequential(
          (0): Conv2d(64, 64, kernel_size=(3, 3), stride=(1, 1), padding=(1, 1))
          (1): GroupNorm(4, 64, eps=1e-05, affine=True)
        )
        (conv_1): Sequential(
          (0): Conv2d(64, 128, kernel_size=(3, 3), stride=(1, 1), padding=(1, 1), bias=False)
          (1): GroupNorm(4, 128, eps=1e-05, affine=True)
        )
        (conv_s): Conv2d(64, 128, kernel_size=(1, 1), stride=(1, 1), bias=False)
      )
      (2): ResnetBlock(
        (actvn): LeakyReLU(negative_slope=0.2)
        (conv_0): Sequential(
          (0): Conv2d(128, 128, kernel_size=(3, 3), stride=(1, 1), padding=(1, 1))
          (1): GroupNorm(4, 128, eps=1e-05, affine=True)
        )
        (conv_1): Sequential(
          (0): Conv2d(128, 128, kernel_size=(3, 3), stride=(1, 1), padding=(1, 1), bias=False)
          (1): GroupNorm(4, 128, eps=1e-05, affine=True)
        )
      )
    )
    (2): Sequential(
      (0): MaxPool2d(kernel_size=2, stride=2, padding=0, dilation=1, ceil_mode=False)
      (1): ResnetBlock(
        (actvn): LeakyReLU(negative_slope=0.2)
        (conv_0): Sequential(
          (0): Conv2d(128, 128, kernel_size=(3, 3), stride=(1, 1), padding=(1, 1))
          (1): GroupNorm(4, 128, eps=1e-05, affine=True)
        )
        (conv_1): Sequential(
          (0): Conv2d(128, 256, kernel_size=(3, 3), stride=(1, 1), padding=(1, 1), bias=False)
          (1): GroupNorm(4, 256, eps=1e-05, affine=True)
        )
        (conv_s): Conv2d(128, 256, kernel_size=(1, 1), stride=(1, 1), bias=False)
      )
      (2): ResnetBlock(
        (actvn): LeakyReLU(negative_slope=0.2)
        (conv_0): Sequential(
          (0): Conv2d(256, 256, kernel_size=(3, 3), stride=(1, 1), padding=(1, 1))
          (1): GroupNorm(4, 256, eps=1e-05, affine=True)
        )
        (conv_1): Sequential(
          (0): Conv2d(256, 256, kernel_size=(3, 3), stride=(1, 1), padding=(1, 1), bias=False)
          (1): GroupNorm(4, 256, eps=1e-05, affine=True)
        )
      )
    )
    (3): Sequential(
      (0): MaxPool2d(kernel_size=2, stride=2, padding=0, dilation=1, ceil_mode=False)
      (1): ResnetBlock(
        (actvn): LeakyReLU(negative_slope=0.2)
        (conv_0): Sequential(
          (0): Conv2d(256, 256, kernel_size=(3, 3), stride=(1, 1), padding=(1, 1))
          (1): GroupNorm(4, 256, eps=1e-05, affine=True)
        )
        (conv_1): Sequential(
          (0): Conv2d(256, 512, kernel_size=(3, 3), stride=(1, 1), padding=(1, 1), bias=False)
          (1): GroupNorm(4, 512, eps=1e-05, affine=True)
        )
        (conv_s): Conv2d(256, 512, kernel_size=(1, 1), stride=(1, 1), bias=False)
      )
      (2): ResnetBlock(
        (actvn): LeakyReLU(negative_slope=0.2)
        (conv_0): Sequential(
          (0): Conv2d(512, 512, kernel_size=(3, 3), stride=(1, 1), padding=(1, 1))
          (1): GroupNorm(4, 512, eps=1e-05, affine=True)
        )
        (conv_1): Sequential(
          (0): Conv2d(512, 512, kernel_size=(3, 3), stride=(1, 1), padding=(1, 1), bias=False)
          (1): GroupNorm(4, 512, eps=1e-05, affine=True)
        )
      )
    )
    (4): Sequential(
      (0): MaxPool2d(kernel_size=2, stride=2, padding=0, dilation=1, ceil_mode=False)
      (1): ResnetBlock(
        (actvn): LeakyReLU(negative_slope=0.2)
        (conv_0): Sequential(
          (0): Conv2d(512, 512, kernel_size=(3, 3), stride=(1, 1), padding=(1, 1))
          (1): GroupNorm(4, 512, eps=1e-05, affine=True)
        )
        (conv_1): Sequential(
          (0): Conv2d(512, 512, kernel_size=(3, 3), stride=(1, 1), padding=(1, 1), bias=False)
          (1): GroupNorm(4, 512, eps=1e-05, affine=True)
        )
      )
      (2): ResnetBlock(
        (actvn): LeakyReLU(negative_slope=0.2)
        (conv_0): Sequential(
          (0): Conv2d(512, 512, kernel_size=(3, 3), stride=(1, 1), padding=(1, 1))
          (1): GroupNorm(4, 512, eps=1e-05, affine=True)
        )
        (conv_1): Sequential(
          (0): Conv2d(512, 512, kernel_size=(3, 3), stride=(1, 1), padding=(1, 1), bias=False)
          (1): GroupNorm(4, 512, eps=1e-05, affine=True)
        )
      )
    )
    (5): Sequential(
      (0): MaxPool2d(kernel_size=4, stride=1, padding=0, dilation=1, ceil_mode=False)
      (1): ResnetBlock(
        (actvn): LeakyReLU(negative_slope=0.2)
        (conv_0): Sequential(
          (0): Conv2d(512, 512, kernel_size=(3, 3), stride=(1, 1), padding=(1, 1))
          (1): GroupNorm(4, 512, eps=1e-05, affine=True)
        )
        (conv_1): Sequential(
          (0): Conv2d(512, 512, kernel_size=(3, 3), stride=(1, 1), padding=(1, 1), bias=False)
          (1): GroupNorm(4, 512, eps=1e-05, affine=True)
        )
      )
      (2): ResnetBlock(
        (actvn): LeakyReLU(negative_slope=0.2)
        (conv_0): Sequential(
          (0): Conv2d(512, 512, kernel_size=(3, 3), stride=(1, 1), padding=(1, 1))
          (1): GroupNorm(4, 512, eps=1e-05, affine=True)
        )
        (conv_1): Sequential(
          (0): Conv2d(512, 512, kernel_size=(3, 3), stride=(1, 1), padding=(1, 1), bias=False)
          (1): GroupNorm(4, 512, eps=1e-05, affine=True)
        )
      )
    )
  )
  (render_nets): ModuleList(
    (0): ModuleList(
      (0): ConvLSTM(
        (model): NormConvLSTMCell(
          (ih_gates): Sequential(
            (0): Conv2d(522, 2048, kernel_size=(3, 3), stride=(1, 1), padding=(1, 1))
            (1): GroupNorm(16, 2048, eps=1e-05, affine=True)
          )
          (hh_gates): Sequential(
            (0): Conv2d(512, 2048, kernel_size=(3, 3), stride=(1, 1), padding=(1, 1))
            (1): GroupNorm(16, 2048, eps=1e-05, affine=True)
          )
          (c_norm): GroupNorm(16, 512, eps=1e-05, affine=True)
        )
      )
      (1): DcUpConv(
        (main): Sequential(
          (0): ConvTranspose2d(512, 512, kernel_size=(4, 4), stride=(1, 1))
          (1): GroupNorm(4, 512, eps=1e-05, affine=True)
          (2): LeakyReLU(negative_slope=0.2, inplace=True)
        )
      )
    )
    (1): ModuleList(
      (0): ConvLSTM(
        (model): NormConvLSTMCell(
          (ih_gates): Sequential(
            (0): Conv2d(512, 2048, kernel_size=(3, 3), stride=(1, 1), padding=(1, 1))
            (1): GroupNorm(16, 2048, eps=1e-05, affine=True)
          )
          (hh_gates): Sequential(
            (0): Conv2d(512, 2048, kernel_size=(3, 3), stride=(1, 1), padding=(1, 1))
            (1): GroupNorm(16, 2048, eps=1e-05, affine=True)
          )
          (c_norm): GroupNorm(16, 512, eps=1e-05, affine=True)
        )
      )
      (1): DcUpConv(
        (main): Sequential(
          (0): ConvTranspose2d(512, 512, kernel_size=(4, 4), stride=(2, 2), padding=(1, 1))
          (1): GroupNorm(4, 512, eps=1e-05, affine=True)
          (2): LeakyReLU(negative_slope=0.2, inplace=True)
        )
      )
    )
    (2): ModuleList(
      (0): ConvLSTM(
        (model): NormConvLSTMCell(
          (ih_gates): Sequential(
            (0): Conv2d(512, 2048, kernel_size=(3, 3), stride=(1, 1), padding=(1, 1))
            (1): GroupNorm(16, 2048, eps=1e-05, affine=True)
          )
          (hh_gates): Sequential(
            (0): Conv2d(512, 2048, kernel_size=(3, 3), stride=(1, 1), padding=(1, 1))
            (1): GroupNorm(16, 2048, eps=1e-05, affine=True)
          )
          (c_norm): GroupNorm(16, 512, eps=1e-05, affine=True)
        )
      )
      (1): DcUpConv(
        (main): Sequential(
          (0): ConvTranspose2d(512, 256, kernel_size=(4, 4), stride=(2, 2), padding=(1, 1))
          (1): GroupNorm(4, 256, eps=1e-05, affine=True)
          (2): LeakyReLU(negative_slope=0.2, inplace=True)
        )
      )
    )
    (3): ModuleList(
      (0): ConvLSTM(
        (model): NormConvLSTMCell(
          (ih_gates): Sequential(
            (0): Conv2d(256, 1024, kernel_size=(3, 3), stride=(1, 1), padding=(1, 1))
            (1): GroupNorm(16, 1024, eps=1e-05, affine=True)
          )
          (hh_gates): Sequential(
            (0): Conv2d(256, 1024, kernel_size=(3, 3), stride=(1, 1), padding=(1, 1))
            (1): GroupNorm(16, 1024, eps=1e-05, affine=True)
          )
          (c_norm): GroupNorm(16, 256, eps=1e-05, affine=True)
        )
      )
      (1): DcUpConv(
        (main): Sequential(
          (0): ConvTranspose2d(256, 128, kernel_size=(4, 4), stride=(2, 2), padding=(1, 1))
          (1): GroupNorm(4, 128, eps=1e-05, affine=True)
          (2): LeakyReLU(negative_slope=0.2, inplace=True)
        )
      )
    )
    (4): ModuleList(
      (0): ConvLSTM(
        (model): NormConvLSTMCell(
          (ih_gates): Sequential(
            (0): Conv2d(128, 512, kernel_size=(3, 3), stride=(1, 1), padding=(1, 1))
            (1): GroupNorm(16, 512, eps=1e-05, affine=True)
          )
          (hh_gates): Sequential(
            (0): Conv2d(128, 512, kernel_size=(3, 3), stride=(1, 1), padding=(1, 1))
            (1): GroupNorm(16, 512, eps=1e-05, affine=True)
          )
          (c_norm): GroupNorm(16, 128, eps=1e-05, affine=True)
        )
      )
      (1): DcUpConv(
        (main): Sequential(
          (0): ConvTranspose2d(128, 64, kernel_size=(4, 4), stride=(2, 2), padding=(1, 1))
          (1): GroupNorm(4, 64, eps=1e-05, affine=True)
          (2): LeakyReLU(negative_slope=0.2, inplace=True)
        )
      )
    )
    (5): ModuleList(
      (0): ConvLSTM(
        (model): NormConvLSTMCell(
          (ih_gates): Sequential(
            (0): Conv2d(64, 256, kernel_size=(3, 3), stride=(1, 1), padding=(1, 1))
            (1): GroupNorm(16, 256, eps=1e-05, affine=True)
          )
          (hh_gates): Sequential(
            (0): Conv2d(64, 256, kernel_size=(3, 3), stride=(1, 1), padding=(1, 1))
            (1): GroupNorm(16, 256, eps=1e-05, affine=True)
          )
          (c_norm): GroupNorm(16, 64, eps=1e-05, affine=True)
        )
      )
      (1): DcConv(
        (main): Sequential(
          (0): Conv2d(64, 64, kernel_size=(3, 3), stride=(1, 1), padding=(1, 1))
          (1): GroupNorm(4, 64, eps=1e-05, affine=True)
          (2): LeakyReLU(negative_slope=0.2, inplace=True)
        )
      )
      (2): TemporalConv2d(
        (model): Conv2d(64, 1, kernel_size=(3, 3), stride=(1, 1), padding=(1, 1))
      )
    )
  )
  (init_nets): ModuleList(
    (0): Sequential(
      (0): DcConv(
        (main): Sequential(
          (0): Conv2d(5120, 5120, kernel_size=(1, 1), stride=(1, 1))
          (1): GroupNorm(4, 5120, eps=1e-05, affine=True)
          (2): LeakyReLU(negative_slope=0.2, inplace=True)
        )
      )
      (1): TemporalConv2d(
        (model): Conv2d(5120, 1024, kernel_size=(1, 1), stride=(1, 1))
      )
      (2): TemporalNorm2d(
        (model): GroupNorm(1, 1024, eps=1e-05, affine=True)
      )
    )
    (1): Sequential(
      (0): DcConv(
        (main): Sequential(
          (0): Conv2d(5120, 5120, kernel_size=(1, 1), stride=(1, 1))
          (1): GroupNorm(4, 5120, eps=1e-05, affine=True)
          (2): LeakyReLU(negative_slope=0.2, inplace=True)
        )
      )
      (1): TemporalConv2d(
        (model): Conv2d(5120, 1024, kernel_size=(1, 1), stride=(1, 1))
      )
      (2): TemporalNorm2d(
        (model): GroupNorm(1, 1024, eps=1e-05, affine=True)
      )
    )
    (2): Sequential(
      (0): DcConv(
        (main): Sequential(
          (0): Conv2d(5120, 5120, kernel_size=(1, 1), stride=(1, 1))
          (1): GroupNorm(4, 5120, eps=1e-05, affine=True)
          (2): LeakyReLU(negative_slope=0.2, inplace=True)
        )
      )
      (1): TemporalConv2d(
        (model): Conv2d(5120, 1024, kernel_size=(1, 1), stride=(1, 1))
      )
      (2): TemporalNorm2d(
        (model): GroupNorm(1, 1024, eps=1e-05, affine=True)
      )
    )
    (3): Sequential(
      (0): DcConv(
        (main): Sequential(
          (0): Conv2d(2560, 2560, kernel_size=(1, 1), stride=(1, 1))
          (1): GroupNorm(4, 2560, eps=1e-05, affine=True)
          (2): LeakyReLU(negative_slope=0.2, inplace=True)
        )
      )
      (1): TemporalConv2d(
        (model): Conv2d(2560, 512, kernel_size=(1, 1), stride=(1, 1))
      )
      (2): TemporalNorm2d(
        (model): GroupNorm(1, 512, eps=1e-05, affine=True)
      )
    )
    (4): Sequential(
      (0): DcConv(
        (main): Sequential(
          (0): Conv2d(1280, 1280, kernel_size=(1, 1), stride=(1, 1))
          (1): GroupNorm(4, 1280, eps=1e-05, affine=True)
          (2): LeakyReLU(negative_slope=0.2, inplace=True)
        )
      )
      (1): TemporalConv2d(
        (model): Conv2d(1280, 256, kernel_size=(1, 1), stride=(1, 1))
      )
      (2): TemporalNorm2d(
        (model): GroupNorm(1, 256, eps=1e-05, affine=True)
      )
    )
    (5): Sequential(
      (0): DcConv(
        (main): Sequential(
          (0): Conv2d(640, 640, kernel_size=(1, 1), stride=(1, 1))
          (1): GroupNorm(4, 640, eps=1e-05, affine=True)
          (2): LeakyReLU(negative_slope=0.2, inplace=True)
        )
      )
      (1): TemporalConv2d(
        (model): Conv2d(640, 128, kernel_size=(1, 1), stride=(1, 1))
      )
      (2): TemporalNorm2d(
        (model): GroupNorm(1, 128, eps=1e-05, affine=True)
      )
    )
  )
  (prior_nets): ModuleList(
    (0): ModuleList(
      (0): TemporalConv2d(
        (model): Conv2d(512, 512, kernel_size=(1, 1), stride=(1, 1))
      )
      (1): TemporalNorm2d(
        (model): GroupNorm(1, 512, eps=1e-05, affine=True)
      )
      (2): ConvLSTM(
        (model): NormConvLSTMCell(
          (ih_gates): Sequential(
            (0): Conv2d(512, 2048, kernel_size=(3, 3), stride=(1, 1), padding=(1, 1))
            (1): GroupNorm(16, 2048, eps=1e-05, affine=True)
          )
          (hh_gates): Sequential(
            (0): Conv2d(512, 2048, kernel_size=(3, 3), stride=(1, 1), padding=(1, 1))
            (1): GroupNorm(16, 2048, eps=1e-05, affine=True)
          )
          (c_norm): GroupNorm(16, 512, eps=1e-05, affine=True)
        )
      )
      (3): TemporalConv2d(
        (model): Conv2d(512, 20, kernel_size=(1, 1), stride=(1, 1))
      )
      (4): TemporalNorm2d(
        (model): GroupNorm(1, 20, eps=1e-05, affine=True)
      )
    )
  )
  (posterior_nets): ModuleList(
    (0): ModuleList(
      (0): TemporalConv2d(
        (model): Conv2d(512, 512, kernel_size=(1, 1), stride=(1, 1))
      )
      (1): TemporalNorm2d(
        (model): GroupNorm(1, 512, eps=1e-05, affine=True)
      )
      (2): ConvLSTM(
        (model): NormConvLSTMCell(
          (ih_gates): Sequential(
            (0): Conv2d(512, 2048, kernel_size=(3, 3), stride=(1, 1), padding=(1, 1))
            (1): GroupNorm(16, 2048, eps=1e-05, affine=True)
          )
          (hh_gates): Sequential(
            (0): Conv2d(512, 2048, kernel_size=(3, 3), stride=(1, 1), padding=(1, 1))
            (1): GroupNorm(16, 2048, eps=1e-05, affine=True)
          )
          (c_norm): GroupNorm(16, 512, eps=1e-05, affine=True)
        )
      )
      (3): TemporalConv2d(
        (model): Conv2d(512, 20, kernel_size=(1, 1), stride=(1, 1))
      )
      (4): TemporalNorm2d(
        (model): GroupNorm(1, 20, eps=1e-05, affine=True)
      )
    )
  )
  (prior_init_nets): ModuleList(
    (0): Sequential(
      (0): DcConv(
        (main): Sequential(
          (0): Conv2d(5120, 5120, kernel_size=(1, 1), stride=(1, 1))
          (1): GroupNorm(4, 5120, eps=1e-05, affine=True)
          (2): LeakyReLU(negative_slope=0.2, inplace=True)
        )
      )
      (1): TemporalConv2d(
        (model): Conv2d(5120, 1024, kernel_size=(1, 1), stride=(1, 1))
      )
      (2): TemporalNorm2d(
        (model): GroupNorm(1, 1024, eps=1e-05, affine=True)
      )
    )
  )
  (posterior_init_nets): ModuleList(
    (0): Sequential(
      (0): DcConv(
        (main): Sequential(
          (0): Conv2d(5120, 5120, kernel_size=(1, 1), stride=(1, 1))
          (1): GroupNorm(4, 5120, eps=1e-05, affine=True)
          (2): LeakyReLU(negative_slope=0.2, inplace=True)
        )
      )
      (1): TemporalConv2d(
        (model): Conv2d(5120, 1024, kernel_size=(1, 1), stride=(1, 1))
      )
      (2): TemporalNorm2d(
        (model): GroupNorm(1, 1024, eps=1e-05, affine=True)
      )
    )
  )
)